output/camera_params.npz (npz, 918 bytes, 3 tensors)

K f8 [3, 3]
000000 1a cd ef 61 87 d6 a2 40 00 00 00 00 00 00 00 00
       2411.2644190729015 0.0
000010 71 c6 71 ff 28 d0 8f 40 00 00 00 00 00 00 00 00
       1018.0200184715924 0.0
000020 29 56 0a 7e 66 d6 a2 40 4d c4 32 bb db 3c 88 40
       2411.2001803617645 775.6072906461865
000030 00 00 00 00 00 00 00 00 00 00 00 00 00 00 00 00
       0.0 0.0
000040 00 00 00 00 00 00 f0 3f
       1.0

Rt_avg f8 [3, 4]
000000 85 6b bd 27 42 f0 ef bf 5f 1c 76 68 29 46 77 bf
       -0.9980784202738141 -0.005682145834163681
000010 38 86 13 5d 73 97 af bf 75 b1 0a fc 60 fe fd bf
       -0.061702351676796885 -1.8746042104131366
000020 27 f5 2f 0e 20 1a 6f bf a6 1f 6f b7 18 fc ef 3f
       -0.003796637161484501 0.99952350451439
000030 57 d7 40 a2 1f 5e 9f bf 28 3f 2f 96 a4 b2 db bf
       -0.030632490423350003 -0.43277849832974136
000040 a8 09 8f 42 69 aa af 3f 8e a2 9a 66 48 11 9f bf
       0.06184700906262047 -0.03033936620946292
000050 97 d3 af 08 8a ec ef bf da 8b 2d 69 7a 79 42 40
       -0.9976244134582996 36.9490481827158

s_avg f8 []
000000 d9 8b 2d 69 7a 79 42 40
       36.94904818271579
