output/camera_params.npz (npz, 668 bytes, 2 tensors)

K f8 [3, 3]
00000000: 1acd ef61 87d6 a240 0000 0000 0000 0000
00000010: 71c6 71ff 28d0 8f40 0000 0000 0000 0000
00000020: 2956 0a7e 66d6 a240 4dc4 32bb db3c 8840
00000030: 0000 0000 0000 0000 0000 0000 0000 0000
00000040: 0000 0000 0000 f03f
2411.2644190729015 0.0 1018.0200184715924 0.0 2411.2001803617645 775.6072906461865 0.0 0.0
1.0

Rt_avg f8 [3, 4]
00000000: 969d 8de1 1aeb efbf 0aae 3c16 b096 81bf
00000010: 3b36 e96f d723 b2bf f82b 60fe 8191 02c0
00000020: b5f9 f797 3125 7dbf 8b6d 6407 fcfd ef3f
00000030: 3298 a524 6083 95bf f28d 848b d7ab eabf
00000040: 8eb6 6f0b 862e b23f 7737 9279 27f1 94bf
00000050: 9852 e461 98e9 efbf fc63 cbd4 747e 4240
-0.9974493413291607 -0.008588195494289703 -0.07085939867212059 -2.321048724470071 -0.007115548825366626 0.9997539657955924 -0.02100897048639911 -0.8334768032986501
0.07102239398201446 -0.020451180262674975 -0.9972650443983921 36.987940406143
